…
eply":"2026-02-06T15:58:49.869604Z"}},"outputs":[{"name":"stdout","text":"Trainable parameters: 8398858\n","output_type":"stream"}],"execution_count":9},{"cell_type":"code","source":"resnet","metadata":{"trusted":true,"execution":{"iopub.status.busy":"2026-02-06T15:58:49.871077Z","iopub.execute_input":"2026-02-06T15:58:49.871345Z","iopub.status.idle":"2026-02-06T15:58:49.877478Z","shell.execute_reply.started":"2026-02-06T15:58:49.871317Z","shell.execute_reply":"2026-02-06T15:58:49.876895Z"}},"outputs":[{"execution_count":10,"output_type":"execute_result","data":{"text/plain":"ResNet(\n  (conv1): Conv2d(3, 64, kernel_size=(7, 7), stride=(2, 2), padding=(3, 3), bias=False)\n  (bn1): BatchNorm2d(64, eps=1e-05, momentum=0.1, affine=True, track_running_stats=True)\n  (relu): ReLU(inplace=True)\n  (maxpool): MaxPool2d(kernel_size=3, stride=2, padding=1, dilation=1, ceil_mode=False)\n  (layer1): Sequential(\n    (0): BasicBlock(\n      (conv1): Conv2d(64, 64, kernel_size=(3, 3), stride=(1, 1), padding=(1, 1), bias=False)\n      (bn1): BatchNorm2d(64, eps=1e-05, momentum=0.1, affine=True, track_running_stats=True)\n      (relu): ReLU(inplace=True)\n      (conv2): Conv2d(64, 64, kernel_size=(3, 3), stride=(1, 1), padding=(1, 1), bias=False)\n      (bn2): BatchNorm2d(64, eps=1e-05, momentum=0.1, affine=True, track_running_stats=True)\n    )\n    (1): BasicBlock(\n      (conv1): Conv2d(64, 64, kernel_size=(3, 3), stride=(1, 1), padding=(1, 1), bias=False)\n      (bn1): BatchNorm2d(64, eps=1e-05, momentum=0.1, affine=True, track_running_stats=True)\n      (relu): ReLU(inplace=True)\n      (conv2): Conv2d(64, 64, kernel_size=(3, 3), stride=(1, 1), padding=(1, 1), bias=False)\n      (bn2): BatchNorm2d(64, eps=1e-05, momentum=0.1, affine=True, track_running_stats=True)\n    )\n  )\n  (layer2): Sequential(\n    (0): BasicBlock(\n      (conv1): Conv2d(64, 128, kernel_size=(3, 3), stride=(2, 2), padding=(1, 1), bias=False)\n      (bn1): BatchNorm2d(128, eps=1e-05, momentum=0.1, affine=True, track_running_stats=True)\n      (relu): ReLU(inplace=True)\n      (conv2): Conv2d(128, 128, kernel_size=(3, 3), stride=(1, 1), padding=(1, 1), bias=False)\n      (bn2): BatchNorm2d(128, eps=1e-05, momentum=0.1, affine=True, track_running_stats=True)\n      (downsample): Sequential(\n        (0): Conv2d(64, 128, kernel_size=(1, 1), stride=(2, 2), bias=False)\n        (1): BatchNorm2d(128, eps=1e-05, momentum=0.1, affine=True, track_running_stats=True)\n      )\n    )\n    (1): BasicBlock(\n      (conv1): Conv2d(128, 128, kernel_size=(3, 3), stride=(1, 1), padding=(1, 1), bias=False)\n      (bn1): BatchNorm2d(128, eps=1e-05, momentum=0.1, affine=True, track_running_stats=True)\n      (relu): ReLU(inplace=True)\n      (conv2): Conv2d(128, 128, kernel_size=(3, 3), stride=(1, 1), padding=(1, 1), bias=False)\n      (bn2): BatchNorm2d(128, eps=1e-05, momentum=0.1, affine=True, track_running_stats=True)\n    )\n  )\n  (layer3): Sequential(\n    (0): BasicBlock(\n      (conv1): Conv2d(128, 256, kernel_size=(3, 3), stride=(2, 2), padding=(1, 1), bias=False)\n      (bn1): BatchNorm2d(256, eps=1e-05, momentum=0.1, affine=True, track_running_stats=True)\n      (relu): ReLU(inplace=True)\n      (conv2): Conv2d(256, 256, kernel_size=(3, 3), stride=(1, 1), padding=(1, 1), bias=False)\n      (bn2): BatchNorm2d(256, eps=1e-05, momentum=0.1, affine=True, track_running_stats=True)\n      (downsample): Sequential(\n        (0): Conv2d(128, 256, kernel_size=(1, 1), stride=(2, 2), bias=False)\n        (1): BatchNorm2d(256, eps=1e-05, momentum=0.1, affine=True, track_running_stats=True)\n      )\n    )\n    (1): BasicBlock(\n      (conv1): Conv2d(256, 256, kernel_size=(3, 3), stride=(1, 1), padding=(1, 1), bias=False)\n      (bn1): BatchNorm2d(256, eps=1e-05, momentum=0.1, affine=True, track_running_stats=True)\n      (relu): ReLU(inplace=True)\n      (conv2): Conv2d(256, 256, kernel_size=(3, 3), stride=(1, 1), padding=(1, 1), bias=False)\n      (bn2): BatchNorm2d(256, eps=1e-05, momentum=0.1, affine=True, track_running_stats=True)\n    )\n  )\n  (layer4): Sequential(\n    (0): BasicBlock(\n      (conv1): Conv2d(256, 512, kernel_size=(3, 3), stride=(2, 2), padding=(1, 1), bias=False)\n      (bn1): BatchNorm2d(512, eps=1e-05, momentum=0.1, affine=True, track_running_stats=True)\n      (relu): ReLU(inplace=True)\n      (conv2): Conv2d(512, 512, kernel_size=(3, 3), stride=(1, 1), padding=(1, 1), bias=False)\n      (bn2): BatchNorm2d(512, eps=1e-05, momentum=0.1, affine=True, track_running_stats=True)\n      (downsample): Sequential(\n        (0): Conv2d(256, 512, kernel_size=(1, 1), stride=(2, 2), bias=False)\n        (1): BatchNorm2d(512, eps=1e-05, momentum=0.1, affine=True, track_running_stats=True)\n      )\n    )\n    (1): BasicBlock(\n      (conv1): Conv2d(512, 512, kernel_size=(3, 3), stride=(1, 1), padding=(1, 1), bias=False)\n      (bn1): BatchNorm2d(512, eps=1e-05, momentum=0.1, affine=True, track_running_stats=True)\n      (relu): ReLU(inplace=True)\n      (conv2): Conv2d(512, 512, kernel_size=(3, 3), stride=(1, 1), padding=(1, 1), bias=False)\n      (bn2): BatchNorm2d(512, eps=1e-05, momentum=0.1, affine=True, track_running_stats=True)\n    )\n  )\n  (avgpool): AdaptiveAvgPool2d(output_size=(1, 1))\n  (fc): Linear(in_features=512, out_features=10, bias=True)\n)"},"metadata":{}}],"execution_count":10},{"cell_type":"code","source":"criterion = nn.CrossEntropyLoss()\n\noptimizer = torch.optim.SGD(\n    filter(lambda p: p.requires_grad, resnet.parameters()),\n    lr=0.001,\n    momentum=0.9\n)\n","metadata":{"trusted":true,"execution":{"iopub.status.busy":"2026-02-06T15:58:49.878276Z","iopub.execute_input":"202
…
